simple_fno.onnx (onnx, 896 bytes, 4 tensors)

p_w f4 [16, 1]
-0.26601148 0.3455521 -0.23832679 -0.48522162 -0.3993758 -0.957191 -0.00050854683 0.51448226
-0.07207751 0.21424305 0.7236843 0.07818842 -0.87347674 -0.9479054 0.38979268 -0.84967685
00000000: a832 88be 34ec b03e f00b 74be f86e f8be
00000010: fc7a ccbe 780a 75bf 0050 05ba 1cb5 033f
00000020: 609d 93bd 8862 5b3e 6043 393f 4021 a03d
00000030: 2c9c 5fbf eea9 72bf e892 c73e 6c84 59bf

p_b f4 [16]
-0.1419096 0.8282869 0.4509598 0.011800408 -0.47864938 0.6517689 0.43373466 0.11647868
-0.28367126 0.8297571 0.5423652 0.63112473 0.28278267 0.89965653 -0.10227287 0.21560669
00000000: c050 11be 9c0a 543f 34e4 e63e 8056 413c
00000010: 8811 f5be 54da 263f 7812 de3e 608c ee3d
00000020: 5c3d 91be f66a 543f 72d8 0a3f 6491 213f
00000030: e4c8 903e e44f 663f 7074 d1bd 00c8 5c3e

q_w f4 [1, 16]
0.086384356 0.18356931 0.20772424 0.11387786 0.109161735 -0.054993838 -0.01943779 -0.20861411
-0.08495939 0.117515385 -0.086850286 -0.05583191 -0.22151479 0.10333046 0.01850015 -0.12874615
00000000: 48ea b03d 98f9 3b3e aab5 543e cc38 e93d
00000010: 3090 df3d 3841 61bd 003c 9fbc f09e 55be
00000020: 30ff adbd e8ab f03d 90de b1bd 00b0 64bd
00000030: c6d4 62be ec9e d33d a08d 973c 08d6 03be

w0_b f4 [16]
0.030051619 -0.22018781 0.08269721 -0.24946493 0.20276937 0.15933785 -0.22660914 0.08326596
0.19452646 -0.23490149 -0.17363 0.19596416 0.16723108 -0.113455 0.16615027 0.01644957
00000000: d02e f63c ea78 61be 285d a93d bc73 7fbe
00000010: c6a2 4f3e 7629 233e 3a0c 68be 5887 aa3d
00000020: f231 473e 048a 70be 10cc 31be d4aa 483e
00000030: a03e 2b3e 185b e8bd 4c23 2a3e 40c1 863c
