examples/wave_pinn/wave_pinn_clean.onnx (onnx, 51970 bytes, 5 tensors)

conv1.weight f4 [64, 1, 3]
0	0xbed73370	-0.4203143
1	0xbea4e95e	-0.32209295
2	0xbebb524c	-0.36586225
3	0xbef17d9c	-0.47166145
4	0x3f01ccbe	0.50703037
5	0x3f132f44	0.57493997
6	0x3ef582dc	0.479514
7	0x3e906a64	0.2820617
8	0x3e7d6a7c	0.24747652
9	0xbea23143	-0.3167821
10	0xbdf8f5e8	-0.12156278
11	0xbeb462b4	-0.35231555
12	0xbed8a6eb	-0.42314848
13	0xbeb67c78	-0.35641837
14	0xbe7dd9bc	-0.2479009
15	0x3e8def5c	0.2772168
16	0xbe9dbd72	-0.30808598
17	0xbeb238c8	-0.34808946
18	0x3ec4b024	0.38415635
19	0x3efbcb88	0.4917872
20	0xbe2b2a5c	-0.16715378
21	0xbdfb7c30	-0.12279546
22	0x3e7d58d8	0.24740922
23	0xbec566bd	-0.38554946
24	0x3cd3d4c0	0.025858283
25	0xbf069371	-0.5256873
26	0x3e9f6f52	0.31139618
27	0x3ea28a9e	0.31746382
28	0x3ee36bb0	0.44418097
29	0x3e699528	0.22810805
30	0xbf0e1ed4	-0.5551579
31	0xbe8f1c85	-0.27951446
32	0x3dea94b8	0.11454147
33	0x3da190a8	0.07888919
34	0xbdd0aff4	-0.101898104
35	0x3e0707b0	0.13186526
36	0xbe78e764	-0.24307019
37	0xbbdd0180	-0.0067445636
38	0xbefaf867	-0.4901764
39	0x3eb92290	0.36159182
40	0xbcda4480	-0.026643991
41	0x3dca2b20	0.09871507
42	0x3ec4f444	0.3846761
43	0xbd3a8220	-0.045534253
44	0x3e11aedc	0.1422686
45	0xbe6c7c4c	-0.2309429
46	0xbeb36f39	-0.35045794
47	0x3e033f30	0.12817073
48	0xbefdc538	-0.49564528
49	0x3ee2bc9c	0.44284523
50	0x3edfa6b4	0.43681872
51	0x3f0b0c5a	0.5431572
52	0x3f0a41ea	0.54006827
53	0x3ebf39b4	0.37348711
54	0x3eaf38e2	0.34223086
55	0xbeff2d37	-0.49839184
56	0x3f0eed88	0.55831194
57	0x3ec0392e	0.37543625
58	0x3edbe148	0.42945313
59	0xbda7fd7c	-0.08202645
60	0x3f0eb6ac	0.55747485
61	0xbe8b0f80	-0.27160263
62	0xbe73d696	-0.23812327
63	0x3e8bda0e	0.273148
64	0x3e093c8c	0.13402003
65	0x3ebdab68	0.37044835
66	0x3ef95be0	0.48702908
67	0xbe778e7a	-0.24175444
68	0x3e92ba4c	0.28657758
69	0xbf00c197	-0.50295395
70	0x3eac77f4	0.33685267
71	0xbe9eb0c6	-0.30994242
72	0xbf0411a4	-0.5158942
73	0x3eee3474	0.46524394
74	0xbefc7622	-0.49308878
75	0xbdafc3cc	-0.08582267
76	0xbed9744d	-0.42471543
77	0xbdd0e47c	-0.1019983
78	0x3de16450	0.11005461
79	0x3dc8b4b0	0.098000884
80	0xbc424100	-0.0118563175
81	0x3ee08f3c	0.4385928
82	0x3dc16268	0.09442598
83	0x3b7f0e00	0.0038918257
84	0x3eb84b6a	0.35995036
85	0x3ed622d6	0.41823453
86	0x3ced19e0	0.028943002
87	0xbdcba2b0	-0.099431396
88	0x3ed25576	0.41080827
89	0x3e82e6aa	0.25566608
90	0x3d0037b0	0.031303108
91	0x3e8aa354	0.27077734
92	0xbeb50fcf	-0.35363623
93	0x3f003f80	0.50096893
94	0x3ea93b52	0.3305307
95	0xbecad8fa	-0.39618665
96	0x3e821720	0.25408268
97	0x3ebf72fe	0.3739242
98	0x3f02be48	0.51071596
99	0x3ef1bd24	0.47214615
100	0x3efe2594	0.49638045
101	0xbf0f6704	-0.56016564
102	0xbe58c830	-0.21170115
103	0xbedfccc6	-0.43710917
104	0xbefafa19	-0.49018934
105	0x3d73e720	0.05954659
106	0x3f0f7c7c	0.56049323
107	0xbea65b49	-0.3249152
108	0x3e429e90	0.190058
109	0x3ec8a632	0.39189297
110	0xbd761d70	-0.060086668
111	0xbe2f81fa	-0.17139426
112	0x3e03b5a8	0.12862265
113	0x3e9a76aa	0.30168658
114	0x3c6fcf80	0.014636874
115	0x3ec1bf20	0.3784113
116	0xbe6d595e	-0.23178622
117	0x3e8d2488	0.27566934
118	0xbe0c8680	-0.13723183
119	0xbe13af70	-0.14422393
120	0xbe86c7c7	-0.26324293
121	0x3efac254	0.48976386
122	0x3e6122a0	0.21985865
123	0x3e930312	0.2871328
124	0xbdcf3bac	-0.101188034
125	0xbee31ed8	-0.4435947
126	0xbf096c24	-0.53680634
127	0x3d893a68	0.06700593
128	0x3f12efb2	0.57396996
129	0xbaa17800	-0.0012319088
130	0xbe7ede68	-0.24889529
131	0xbe88f6d8	-0.26750827
132	0x3ea607be	0.32427782
133	0x3eccbcb4	0.3998772
134	0xbdd4bc14	-0.103874356
135	0xbe111442	-0.14167884
136	0x3e3e562c	0.1858756
137	0x3eab2df0	0.33433485
138	0x3e870134	0.26368105
139	0xbee6d336	-0.45083016
140	0xbe937574	-0.28800547
141	0xbee08cbc	-0.43857372
142	0x3ea6afa6	0.32555884
143	0x3eaf849e	0.34280866
144	0xbec25eb7	-0.37962887
145	0x3ec263b8	0.37966704
146	0x3f0e1c04	0.555115
147	0x3d39c150	0.045350373
148	0xbe89ad44	-0.26890004
149	0x3e81729c	0.25282753
150	0xbd9bcc10	-0.07607281
151	0xbf080844	-0.5313761
152	0xbe646b5a	-0.22306576
153	0xbea4fca0	-0.32223988
154	0xbeab19d2	-0.33418137
155	0x3d8e4018	0.06945819
156	0xbe8031d1	-0.25038007
157	0xbe2528d2	-0.16128853
158	0xbe5fedfe	-0.2186813
159	0xbdac0e34	-0.084011465
160	0x3ee2a774	0.44268382
161	0xbeea511b	-0.45765004
162	0xbe5d13b2	-0.21589544
163	0x3f07c506	0.5303501
164	0x3e00debc	0.12584966
165	0x3ea5051e	0.32230467
166	0xbeb67164	-0.35633385
167	0xbf0c69fe	-0.5484923
168	0xbedc94ec	-0.43082368
169	0xbdeddbfc	-0.11614224
170	0x3ea806f6	0.3281781
171	0xbf054c10	-0.5206919
172	0xbed5c492	-0.41751534
173	0x3f054a72	0.5206672
174	0xbedbe802	-0.42950445
175	0x3e42af54	0.19012195
176	0xbe7f133c	-0.24909681
177	0x3c993f40	0.018706918
178	0x3da859a8	0.082202256
179	0xbeb41bf6	-0.35177583
180	0xbebb1b10	-0.36544085
181	0x3d316250	0.04330665
182	0x3cbe22a0	0.02320987
183	0x3e9ef778	0.3104818
184	0xbeeb37aa	-0.45940906
185	0x3dff4488	0.12464243
186	0x3ee52418	0.447541
187	0x3e858902	0.2608109
188	0xbe1e4d10	-0.15459085
189	0x3efebf48	0.4975531
190	0x3f0b457e	0.5440291
191	0xbdad36bc	-0.084577054

conv1.bias f4 [64]
0	0x3dd941b0	0.10608232
1	0xbda94e8c	-0.08266935
2	0xbdab001c	-0.0834963
3	0x3eb9d3b2	0.36294323
4	0x3dc8f7c0	0.098128796
5	0x3efc8b20	0.49324894
6	0x3bbf1700	0.0058315992
7	0x3eefb000	0.46813965
8	0xbea731bf	-0.3265514
9	0xba0bdc00	-0.0005335212
10	0xbe8d5e43	-0.27610978
11	0x3e631998	0.22177732
12	0x3da4e660	0.08051753
13	0xbeb5ea80	-0.35530472
14	0x3e4ae13c	0.19812483
15	0x3ef37f24	0.47557938
16	0xbdd07640	-0.101788044
17	0x3dc58d58	0.096461
18	0xbf00a29f	-0.5024814
19	0x3d8c0450	0.0683676
20	0x3ac20000	0.0014801025
21	0xbefdbf36	-0.49559945
22	0x3ea189f0	0.3155055
23	0xbd1ac4f0	-0.03778547
24	0xbf0b6468	-0.5445008
25	0x3ef7fef4	0.484367
26	0xbd1ef4c0	-0.03880763
27	0xbec4036c	-0.3828386
28	0xbd153060	-0.036423087
29	0xbe849071	-0.2589145
30	0x3eba5e50	0.3640008
31	0xbf0e9840	-0.55701065
32	0xbeca5eb4	-0.39525378
33	0xbe7bab86	-0.2457715
34	0xbddc2ab4	-0.107503325
35	0xbd1d5780	-0.038413525
36	0x3ecddf18	0.4020927
37	0x3e2135c4	0.15743166
38	0xbf0ed9db	-0.5580117
39	0x3ed2b202	0.41151434
40	0x3ef02bf0	0.46908522
41	0xbdae4c54	-0.08510652
42	0xbed2615a	-0.41089898
43	0x3d695d70	0.056973875
44	0xbeb2a370	-0.34890318
45	0x3d465fe0	0.048431277
46	0xbce66ea0	-0.028128922
47	0x3e694250	0.22779202
48	0xbe56745c	-0.20942825
49	0xbd9d4b88	-0.07680422
50	0x3edce664	0.43144524
51	0xbd9947b8	-0.074843824
52	0x3ea9bb4a	0.33150703
53	0x3df91b78	0.121634424
54	0x3e4bb5e4	0.19893605
55	0x3d843050	0.064545274
56	0xbe24b2b8	-0.16083801
57	0x3d98bb78	0.07457632
58	0xbccc74e0	-0.024958074
59	0xbd233950	-0.03984958
60	0xbe8705d1	-0.26371625
61	0x3eb9d5c6	0.3629591
62	0xbe45feb2	-0.1933544
63	0xbee7a477	-0.45242664

conv2.bias f4 [64]
0	0xb9d7a000	-0.00041127205
1	0xbcecd9c6	-0.028912436
2	0x3d73ed28	0.05955234
3	0x39c08a00	0.00036723912
4	0xbd91b66a	-0.07114871
5	0xbd0ffb8c	-0.035152003
6	0xbca6cbd6	-0.020360868
7	0x3c5a6fb8	0.0133323
8	0x3c27c2e0	0.010239333
9	0x3b75bfc0	0.0037498325
10	0xbb6d3c60	-0.0036199316
11	0xbd05052c	-0.032475635
12	0xbc042758	-0.008066021
13	0xbc18e588	-0.009332068
14	0x3d608fbc	0.054824576
15	0xbd600d18	-0.054699987
16	0x3c9adb0c	0.018903278
17	0x3d3cb0ce	0.04606705
18	0x3d33a11e	0.043854825
19	0xbc8d8332	-0.017274473
20	0x3d1dcefe	0.03852748
21	0xbb0b8960	-0.0021291599
22	0x3d8e8456	0.06958835
23	0x3c2d1848	0.010564871
24	0x3d52bd9a	0.05145035
25	0xbca5b1fa	-0.020226467
26	0x3d8d99c6	0.069140956
27	0x3d0c5b52	0.034266777
28	0xbccdb360	-0.025109947
29	0xbc54406c	-0.0129548125
30	0xbc3f6c14	-0.011683483
31	0xbd3a2052	-0.04544098
32	0xbced8474	-0.028993823
33	0x3d614fd8	0.055007786
34	0x3c07d8e8	0.008291461
35	0x3d519092	0.051163264
36	0xbcb0bb4c	-0.021573685
37	0xbd55bef8	-0.052184075
38	0xbd704bdc	-0.058666095
39	0xbd483115	-0.048874933
40	0xbd4e33aa	-0.05034224
41	0x3cab034c	0.020875596
42	0x3d354946	0.044259332
43	0x3d5bbad8	0.053644985
44	0x3bbb1990	0.0057098344
45	0xbd68ef3a	-0.05686877
46	0xbad3f280	-0.0016170293
47	0x3d3900f8	0.04516694
48	0x3d924e0a	0.07143791
49	0xbba1b1f0	-0.004934542
50	0x3c6db310	0.014508024
51	0x3d851856	0.06498782
52	0x3cc1d67c	0.023661844
53	0x3b920280	0.0044558644
54	0x3d8fa526	0.070139214
55	0x3d295f66	0.041350745
56	0x3d910e26	0.07082777
57	0x3d8dcc28	0.06923705
58	0x3a8a2e00	0.0010542274
59	0x3d20a0a6	0.039215706
60	0x3c96fff8	0.018432602
61	0xbc9391f6	-0.018013936
62	0xbd818ecd	-0.06326065
63	0xbd253072	-0.040329404

head.weight f4 [1, 64, 3]
0	0xbad26a80	-0.0016053468
1	0x3d29d540	0.041463137
2	0xbc805e66	-0.015670013
3	0x3d2c58e8	0.042076975
4	0x3d820c5a	0.06350012
5	0x3d044d38	0.032300204
6	0x3d6fd0f0	0.058548868
7	0xbd3f7394	-0.046741083
8	0xbad48b40	-0.0016215816
9	0xbd3e3aa8	-0.046442658
10	0x3c884590	0.016634732
11	0x3d2b9f82	0.041900165
12	0x3d7c0ac4	0.061533704
13	0x3d2b711a	0.04185591
14	0x3b8a9d30	0.004230164
15	0x3d037b02	0.03209973
16	0xbd71d4d1	-0.05904085
17	0xbd03ac29	-0.032146607
18	0xbd779cd8	-0.060452312
19	0x3cfa21b8	0.030533656
20	0xbc3929d4	-0.0113014765
21	0xbd1676ef	-0.036734518
22	0xbcb8e580	-0.022570372
23	0xbd5b95ec	-0.053609774
24	0x39bf2200	0.0003645569
25	0xbc6b9e58	-0.014381014
26	0xbd86a96a	-0.06575282
27	0x3d46febe	0.048582785
28	0xbc80fe60	-0.015746295
29	0x3c27a4b0	0.010232136
30	0xbd3fd85d	-0.0468372
31	0xbd04dbd0	-0.032436192
32	0xbd87b8ee	-0.066270694
33	0x3d4b4354	0.049624756
34	0x3d2ba334	0.04190369
35	0x3ce16b20	0.027516901
36	0x3d04382e	0.03228014
37	0x3afafc80	0.0019148737
38	0x3d37c682	0.044867046
39	0x3d49b392	0.049243517
40	0x3cd24f1c	0.025672488
41	0xbcced894	-0.025249757
42	0x3d688554	0.056767777
43	0x3d844c36	0.064598486
44	0x3d2dafaa	0.042403854
45	0x3c538bd8	0.012911759
46	0xbb6d2280	-0.0036183894
47	0xbd8e2e32	-0.06942405
48	0xbd82bff5	-0.06384269
49	0x3c503998	0.012709044
50	0x3d8c628e	0.06854735
51	0xbd01fe63	-0.031736743
52	0xbd78872e	-0.060675792
53	0xbc08c620	-0.008348018
54	0x3d295512	0.041340895
55	0xbbf33a60	-0.0074227303
56	0xbd936897	-0.07197683
57	0x3d5ed30c	0.05440049
58	0x3a0ebf00	0.00054453313
59	0xbd2d6096	-0.04232844
60	0x3c8cc3bc	0.017183177
61	0xbd1e0fd2	-0.038589306
62	0x3d48db86	0.04903748
63	0x3d44c78e	0.048041873
64	0x3d8d9896	0.06913869
65	0x3d027786	0.031852268
66	0x3bf33900	0.0074225664
67	0x3d18b1de	0.037279002
68	0x3b142ac0	0.0022608489
69	0x3d0ca044	0.03433253
70	0x3d5f59f8	0.05452916
71	0xbd64ed76	-0.055890523
72	0xbd8dcdaa	-0.06923993
73	0xbd7e0299	-0.062014196
74	0x3d864bf4	0.06557456
75	0x3d9014c8	0.07035214
76	0x3bfe4510	0.0077596977
77	0x3d82a954	0.06379953
78	0x3d6a9400	0.05727005
79	0xbcb66820	-0.022266448
80	0xbce452ac	-0.027871452
81	0x3d823e74	0.06359568
82	0x3d081b16	0.033228956
83	0xbcde76fc	-0.027156346
84	0x3d4b9560	0.049703002
85	0xbcfebdf8	-0.031096444
86	0xbd0fd1a5	-0.035112042
87	0xbce96b60	-0.028493583
88	0x3d8aaddc	0.06771442
89	0xbc7228b4	-0.014780212
90	0x3d7a24fc	0.061070427
91	0xbd3d86bb	-0.046271067
92	0xbd87cdc9	-0.06631047
93	0xbd9002d1	-0.07031787
94	0x3c97e800	0.018543243
95	0x3c573cd8	0.013137065
96	0x3d5d7c90	0.05407387
97	0xbc5f5440	-0.013630927
98	0x3cf30b04	0.029668339
99	0x3d8b4624	0.06800488
100	0x3c5321a8	0.012886442
101	0xbd4ac65b	-0.049505573
102	0xbce11f8e	-0.027480867
103	0xbce5a580	-0.028033018
104	0x3c0f6ba0	0.008753687
105	0x3d247a18	0.0401555
106	0xbc74bfd0	-0.01493831
107	0xbd4be0ea	-0.04977504
108	0x3cb2ad90	0.021811277
109	0xbce1693c	-0.027516
110	0xbd0c2282	-0.034212597
111	0xbd72aab5	-0.05924483
112	0x374ac000	1.2084842e-05
113	0xbd5f9208	-0.054582626
114	0xbd8f5f63	-0.070006154
115	0x3d679f40	0.056548357
116	0x3c1f6218	0.009727977
117	0xbc98fb82	-0.018674616
118	0xbd121989	-0.035668883
119	0x3d542dc6	0.051801465
120	0x3d593614	0.05303009
121	0xbd663a47	-0.05620792
122	0xbcdbe8ec	-0.026844464
123	0xbd1b6f3c	-0.03794788
124	0x3d9061ac	0.070498794
125	0xbcd93608	-0.026515022
126	0xb8f7f400	-0.00011823326
127	0xbd5c26cc	-0.053747937
128	0x3c7c1a10	0.015387073
129	0xbcb8974a	-0.022533078
130	0xbd8d3b6e	-0.06896101
131	0x3b96a2b0	0.0045970306
132	0x3d26445c	0.040592536
133	0xbd5aa0a6	-0.053375863
134	0x3c129ff8	0.008949272
135	0xbd69eef4	-0.05711265
136	0xbc369db4	-0.011145998
137	0x3d81432c	0.0631164
138	0x3d84108e	0.0644847
139	0xbd5ef27e	-0.054430477
140	0x3c102f10	0.008800283
141	0x3d29dbd0	0.041469395
142	0x3d0fca76	0.03510519
143	0x3d39b150	0.045335114
144	0xbcaef780	-0.021358252
145	0x3d12d7a8	0.035850197
146	0x3bf01710	0.007326968
147	0xbced541a	-0.028970767
148	0x3d6f7b0c	0.058466956
149	0xbaf3de40	-0.0018605664
150	0x3c9c49e0	0.019078195
151	0x3d14633a	0.036227442
152	0xbd25db6e	-0.040492468
153	0x3ccb9e08	0.024855629
154	0x3d6ac074	0.057312444
155	0x3d390cae	0.045178108
156	0xbc298848	-0.010347433
157	0xbd478bca	-0.048717298
158	0x3d27f370	0.041003644
159	0x3d12ae7a	0.035810925
160	0x3d44d1f2	0.048051782
161	0x3c12c508	0.008958109
162	0x3bfd2070	0.007724814
163	0x3d28dcf2	0.041226335
164	0x3d5522a8	0.052035004
165	0xbcc4ea5e	-0.024037536
166	0xbd199865	-0.03749885
167	0xbcb4d23a	-0.0220729
168	0x3d094f96	0.033523165
169	0xbd8a65c5	-0.06757692
170	0xbd296eb6	-0.041365348
171	0x3d65c1dc	0.05609308
172	0xbd31fda8	-0.043454796
173	0x3cc6ac14	0.024251975
174	0x3d134fee	0.0359649
175	0x3c9cfc5c	0.019163303
176	0xbca23308	-0.019799724
177	0xbd8f8403	-0.07007601
178	0xbd6a3a64	-0.057184592
179	0x3c0ac290	0.008469239
180	0xbd84e89d	-0.0648968
181	0x3cba451c	0.022738032
182	0x3cf35c88	0.029707208
183	0x3d05e128	0.03268543
184	0xbd28d65c	-0.041220054
185	0xbd3b9216	-0.045793615
186	0x3d1223e8	0.035678774
187	0x3cf283ac	0.029603802
188	0xbd128762	-0.035773642
189	0xbd8942a5	-0.067021646
190	0xb8eb7800	-0.00011228025
191	0xbd4018f6	-0.046898805

conv2.weight f4 [64, 64, 3]
0	0xbd80cd59	-0.06289167
1	0x3c4b2c20	0.012400657
2	0x3d8a27a8	0.06745845
3	0xbd3320b6	-0.043732367
4	0x3d8e8e4a	0.06960733
5	0xbd429110	-0.047501624
6	0x3d8711b0	0.065951705
7	0x3bf6df00	0.007533908
8	0xbc528c58	-0.012850843
9	0x3cae04d0	0.02124253
10	0xbd6a4d12	-0.057202406
11	0x3cb9af70	0.022666663
12	0xbd6869a8	-0.056741387
13	0x3c478498	0.012177609
14	0x3c96aadc	0.018392019
15	0x3b61ebc0	0.0034472793
16	0x3d69a25c	0.057039604
17	0x3d4ea2a4	0.050448075
18	0x3d2cd564	0.042195693
19	0xbcff9818	-0.031200454
20	0xbd6e7a81	-0.058222298
21	0xbcf91930	-0.030407518
22	0xbcff7ae4	-0.031186529
23	0xbc810754	-0.015750565
24	0xbbc45bf0	-0.005992405
25	0x3d1b6dfc	0.037946686
26	0xbc31b294	-0.010845799
27	0xbd04f613	-0.032461237
28	0xbd024c24	-0.031810895
29	0x3d0deea2	0.034651406
30	0x3d2f06e4	0.04273118
31	0x3d2f4764	0.042792693
32	0x3d775f2c	0.060393497
33	0x3d214336	0.039370738
34	0x3cf06eb8	0.02934967
35	0xbd2f2e49	-0.04276875
36	0xbc99b892	-0.018764768
37	0xbcd29816	-0.025707286
38	0x3c8034e0	0.015650213
39	0xbca3a2dc	-0.019975118
40	0xbd8ec7f9	-0.069717355
41	0xbd358dda	-0.044324733
42	0xbcab3ad0	-0.020902067
43	0x3d2b5278	0.041826695
44	0xbd73a712	-0.059485503
45	0xbd88a8c8	-0.066728175
46	0xbd378942	-0.044808634
47	0xbd081a80	-0.033228397
48	0x3d45e80a	0.048316993
49	0x3ba8e870	0.005154662
50	0x3c1092c0	0.00882405
51	0x3d495000	0.04914856
52	0x3d8b60a2	0.068055406
53	0xbd1b32f2	-0.037890382
54	0x3d8d16d2	0.06889118
55	0xbd8a8c76	-0.06765072
56	0xbd4d0b88	-0.050059825
57	0x3cdc4370	0.026887625
58	0xbcc092d6	-0.023507517
59	0xbd66840b	-0.05627827
60	0xbbe758f0	-0.0070601627
61	0x3d011466	0.031513594
62	0x3c81537c	0.015786879
63	0xbcc7b08e	-0.02437618
64	0x3c8f455c	0.017489128
65	0xbaf78180	-0.0018883198
66	0x3cdfc5cc	0.027315997
67	0x3d0292b0	0.031878173
68	0xbbfad420	-0.007654682
69	0xbd792f44	-0.06083609
70	0xbd3e46b5	-0.04645415
71	0xbd0c49b9	-0.034249995
72	0xbd809747	-0.06278854
73	0x3d6f914c	0.058488175
74	0xbcd23c92	-0.025663648
75	0x3d6fd580	0.05855322
76	0x3c2b5c18	0.010458969
77	0xbccb873e	-0.024844762
78	0x3d464470	0.04840511
79	0xbbc4b570	-0.0060030743
80	0xbd837d58	-0.06420392
81	0xbcb56652	-0.022143517
82	0xbc93fe8a	-0.01806571
83	0xbd904c6b	-0.070458256
84	0xbd024f2c	-0.031813785
85	0xbc8c7474	-0.017145373
86	0x3c9a3a88	0.018826738
87	0xbd8c8f2c	-0.06863245
88	0x3ce8a6dc	0.028399877
89	0xbc6e58b8	-0.014547519
90	0x3d7acc10	0.061229765
91	0x3c9be9d8	0.019032404
92	0x3d5716c8	0.05251196
93	0x3ca12450	0.019670635
94	0xbcd6b298	-0.026208207
95	0x3d78953c	0.060689196
96	0xbd6534e2	-0.055958636
97	0xbd658447	-0.056034353
98	0x3cc67c90	0.024229318
99	0x3c4410d8	0.0119669065
100	0xbd5fe1b9	-0.054658625
101	0x3b5bc600	0.0033534765
102	0xbc873fdc	-0.016509943
103	0x3ae13b80	0.001718387
104	0x3cf62ea8	0.030051544
105	0x3cfd0cc0	0.030889869
106	0xbc256d38	-0.010096841
107	0x3d88451c	0.066538066
108	0x3d310916	0.043221556
109	0x3c1de518	0.00963714
110	0x3d7a34d4	0.061085537
111	0x3d4112e0	0.04713714
112	0x3d8cd640	0.068768024
113	0xbc82950c	-0.015940212
114	0xbd074192	-0.033021517
115	0x3d8952ea	0.06705268
116	0xbd5e1a52	-0.05422432
117	0xbd225027	-0.03962722
118	0xbd51f0fa	-0.051255204
119	0x38f76400	0.00011796504
120	0x3d01a7d2	0.031654187
121	0xbd7d9572	-0.0619101
122	0x3cdf97e4	0.027294107
123	0x3b980a50	0.004639901
124	0xbd058cfa	-0.03260515
125	0xbd45fcd9	-0.048336837
126	0x3d8cae8a	0.06869228
127	0xbd695172	-0.056962438
128	0xbd64bd0a	-0.055844344
129	0x3d8b2076	0.06793301
130	0xbd87048c	-0.06592664
131	0xbce18d1c	-0.027533107
132	0x3d72d798	0.059287637
133	0xbd1826ac	-0.037146255
134	0x3d8afc7e	0.0678644
135	0xbd044800	-0.032295227
136	0xbc1b2a18	-0.009470485
137	0xbc8a263e	-0.016863938
138	0x3cf74c74	0.030187823
139	0x3bf98140	0.0076142848
140	0x3c842354	0.016130127
141	0xbd0f5c51	-0.03500015
142	0x3ca72a40	0.020405889
143	0xbd7cc704	-0.061713234
144	0xbc6f18cc	-0.014593314
145	0x3d6416d4	0.055685833
146	0x3d83a8fa	0.06428714
147	0x3c9d9a20	0.019238532
148	0xbca54ecc	-0.020179175
149	0x3d288182	0.041139133
150	0x3cb8819c	0.02252274
151	0xbc657c50	-0.014006689
152	0xbbaa2530	-0.0051924214
153	0xbcd6d122	-0.02622277
154	0x3ab06400	0.0013457537
155	0x3be3dc40	0.006953746
156	0xbca0e9da	-0.01964276
157	0xbd7b4c1e	-0.061351888
158	0xbd2b26dc	-0.041785106
159	0x3d913610	0.0709039
160	0xbc814cd8	-0.015783712
161	0xbc08c268	-0.008347131
162	0xbcd33850	-0.025783688
163	0xbbce34f0	-0.0062929317
164	0xbd2037dd	-0.039115775
165	0x3d930a28	0.071796715
166	0x3d40c484	0.047062412
167	0xbd37c5e4	-0.044866458
168	0xbd7d3c40	-0.061825037
169	0xbd06455a	-0.032780983
170	0xba97a9c0	-0.0011570975
171	0xbd8ba069	-0.06817705
172	0xbcb4643a	-0.022020448
173	0xbd19d908	-0.037560493
174	0xbc0bac28	-0.008524932
175	0x3d76e840	0.060280085
176	0xbc5ab944	-0.013349835
177	0x3c7559a0	0.014974982
178	0x3d424474	0.047428563
179	0x3c29c560	0.010361999
180	0xbb4a0540	-0.0030825883
181	0x3d632d64	0.05546321
182	0x3c68e7c0	0.01421541
183	0xbba99a40	-0.0051758587
184	0xbd01e4f3	-0.031712484
185	0xbd884f36	-0.06655733
186	0xbcfe4110	-0.031036884
187	0xbd7fd69f	-0.062460538
188	0x3d502c00	0.05082321
189	0xbd1ad5a8	-0.037801415
190	0xbc7241bc	-0.01478618
191	0xbc36c780	-0.011155963
192	0xbcc085b8	-0.023501262
193	0xbcfb9a8c	-0.030713342
194	0x3d8126e6	0.063062474
195	0x3d6cf66c	0.057852194
196	0x3b528d00	0.00321275
197	0x3d3d706a	0.046249785
198	0x3d6fa738	0.05850908
199	0x3bbb3660	0.005713269
200	0x3cb479d4	0.022030748
201	0xbd52eb46	-0.051493905
202	0x3b1cb6e0	0.0023912713
203	0x3d682648	0.056677133
204	0x39b45700	0.00034397095
205	0xbd8fedb0	-0.07027757
206	0xbd71670a	-0.058936156
207	0xbc5829a8	-0.013193525
208	0xbc50d7f0	-0.012746796
209	0xbd413a10	-0.047174513
210	0x3a97b500	0.0011574328
211	0xbcada9de	-0.021199163
212	0xbbb28520	-0.0054479986
213	0xbcc4acc0	-0.024008155
214	0xbcf636f4	-0.0300555
215	0xbd89b998	-0.06724852
216	0xbd4e8908	-0.050423652
217	0x3c948be4	0.018133111
218	0xbbdadff0	-0.0066795275
219	0xba0d7180	-0.0005395636
220	0x3d650338	0.055911273
221	0xbc412954	-0.011789639
222	0x3c663c10	0.014052406
223	0x3d6fe140	0.058564425
224	0x3cf8e018	0.030380294
225	0x3c2133f0	0.009839043
226	0xbca47dcc	-0.020079516
227	0x3bcd1100	0.00625813
228	0xbd35e732	-0.04440994
229	0xbd668259	-0.056276653
230	0x3d8e7178	0.06955236
231	0x3d6db60c	0.05803494
232	0x3d89c480	0.067269325
233	0x3c8b0780	0.01697135
234	0x3ca9ccf0	0.020727605
235	0x3cbb59a4	0.022869892
236	0x3d3e65c4	0.04648377
237	0xbbfaac90	-0.0076499656
238	0xbd86d541	-0.06583644
239	0x3d2e30be	0.042526953
240	0x351a0000	5.736947e-07
241	0x3d714d94	0.058911875
242	0x3d8fd55a	0.070231155
243	0xbd6702e4	-0.05639924
244	0x3ca2f4dc	0.019892149
245	0xbc5c4fb0	-0.013446733
246	0x3d823190	0.063571095
247	0x3d6a9798	0.057273477
248	0xbd2dc2be	-0.04242205
249	0xbd6eee1a	-0.05833254
250	0xbd8ec2e5	-0.06970767
251	0xbc3956e4	-0.01131222
252	0x3d7095c8	0.058736593
253	0x3d0e3b46	0.034724496
254	0xbb6d6d80	-0.0036228597
255	0xbc217af8	-0.009855978
