examples/wave_pinn/wave_pinn.onnx (onnx, 1811 bytes, 2 tensors)

conv1.bias f4 [64]
0.48798275 -0.24236071 -0.5364734 -0.22540611 0.43757284 -0.047813892 -0.15798134 -0.43801087
0.19065422 0.030270815 0.06164658 0.1296125 0.19842982 -0.5271424 -0.4543938 -0.02279836
-0.5644857 -0.36796337 0.04191637 -0.5443538 -0.38498706 -0.50608414 -0.011320174 -0.3650756
-0.5313258 0.5026076 -0.17093855 0.12361652 -0.4949516 -0.2867794 -0.5280323 0.0055345893
-0.32878485 0.34909886 0.3487712 0.1632173 -0.16414973 0.37451184 0.3965618 0.2906868
-0.34381777 0.29779798 0.271672 -0.34323043 -0.16819566 0.13050216 -0.061488986 -0.29508334
0.232983 -0.009855807 0.5146289 0.15576506 0.107638836 0.5662409 0.31349725 0.4557022
0.50398386 -0.27550393 0.053771734 -0.20644116 0.33130634 -0.36940554 0.34829807 -0.3073771
00000000: e0d8 f93e 682d 78be 5256 09bf dcd0 66be
00000010: 8c09 e03e 80d8 43bd dcc5 21be f642 e0be
00000020: dc3a 433e 80fa f73c 2081 7c3d 24b9 043e
00000030: 3031 4b3e cef2 06bf 4ea6 e8be a0c3 babc
00000040: 2382 10bf b265 bcbe 80b0 2b3d c55a 0bbf
00000050: 061d c5be bb8e 01bf 4078 39bc 30eb babe
00000060: f804 08bf e4aa 003f 840a 2fbe a82a fd3d
00000070: 4c6a fdbe c0d4 92be 202d 07bf 805b b53b
00000080: 7d56 a8be 16bd b23e 2492 b23e 7022 273e
00000090: de16 28be 04c0 bf3e 260a cb3e e6d4 943e
000000a0: e208 b0be fa78 983e 9818 8b3e e6bb afbe
000000b0: 7c3b 2cbe 5ca2 053e e0db 7bbd 2a15 97be
000000c0: 1893 6e3e 407a 21bc b8be 033f e080 1f3e
000000d0: c071 dc3d 2af5 103f b682 a03e cc51 e93e
000000e0: 1605 013f da0e 8dbe c03f 5c3d 5065 53be
000000f0: fca0 a93e b922 bdbe 2054 b23e 8860 9dbe

conv2.bias f4 [64]
-0.023964718 -0.03204874 -0.062595025 -0.044653855 0.0032909438 -0.014267556 -0.05506898 -0.06749328
-0.038246844 0.015694618 -0.04425551 0.016335726 -0.04932151 0.035578206 -0.011265419 -0.0030726194
0.016682722 -0.06417734 0.062466517 0.00871633 0.028073065 -0.035573363 -0.026161421 0.05298114
-0.033143744 -0.0472716 0.06551017 0.049586996 -0.030548617 -0.0649607 0.027277038 0.025538675
-0.03441233 0.03582719 0.011935264 0.037924357 0.012203068 0.008866161 0.042175166 -0.07203856
-0.050473277 0.06432849 -0.0067426637 0.03728749 0.016879492 -0.008152433 -0.032497462 0.049476743
0.023947611 -0.013412338 -0.047265515 0.03664375 -0.05569066 -0.04744996 -0.07040182 -0.050437115
-0.028005969 -0.030264687 0.05785343 -0.04226514 -0.02043106 0.012563676 -0.02170761 0.033738837
00000000: a851 c4bc 8a45 03bd d231 80bd f6e6 36bd
00000010: e0ac 573b 78c2 69bc 0390 61bd eb39 8abd
00000020: b9a8 1cbd 0092 803c 4445 35bd 80d2 853c
00000030: 5a05 4abd 74ba 113d 9892 38bc 005e 49bb
00000040: 34aa 883c 696f 83bd e4dc 7f3d f0ce 0e3c
00000050: 7cf9 e53c 60b5 11bd 7a50 d6bc c002 593d
00000060: bcc1 07bd de9f 41bd 322a 863d bc1b 4b3d
00000070: 1841 fabc 1e0a 85bd 1874 df3c 7c36 d13c
00000080: f1f3 0cbd 88bf 123d 208c 433c 9256 1b3d
00000090: 60ef 473c 6043 113c debf 2c3d f488 93bd
000000a0: 11bd 4ebd a8be 833d 90f1 dcbb c4ba 183d
000000b0: dc46 8a3c c891 05bc 0f1c 05bd 20a8 4a3d
000000c0: c82d c43c 6cbf 5bbc 7c99 41bd c217 163d
000000d0: e41b 64bd e45a 42bd d42e 90bd 2697 4ebd
000000e0: c66c e5bc a6ed f7bc b8f7 6c3d 361e 2dbd
000000f0: 0a5f a7bc e0d7 4d3c 28d4 b1bc bc31 0a3d
