examples/wave_pinn/wave_pinn.onnx (onnx, 1775 bytes, 2 tensors)

conv1.bias f4 [64]
000000 b0 41 d9 3d 8c 4e a9 bd 1c 00 ab bd b2 d3 b9 3e
       0.10608232 -0.08266935 -0.0834963 0.36294323
000010 c0 f7 c8 3d 20 8b fc 3e 00 17 bf 3b 00 b0 ef 3e
       0.098128796 0.49324894 0.0058315992 0.46813965
000020 bf 31 a7 be 00 dc 0b ba 43 5e 8d be 98 19 63 3e
       -0.3265514 -0.0005335212 -0.27610978 0.22177732
000030 60 e6 a4 3d 80 ea b5 be 3c e1 4a 3e 24 7f f3 3e
       0.08051753 -0.35530472 0.19812483 0.47557938
000040 40 76 d0 bd 58 8d c5 3d 9f a2 00 bf 50 04 8c 3d
       -0.101788044 0.096461 -0.5024814 0.0683676
000050 00 00 c2 3a 36 bf fd be f0 89 a1 3e f0 c4 1a bd
       0.0014801025 -0.49559945 0.3155055 -0.03778547
000060 68 64 0b bf f4 fe f7 3e c0 f4 1e bd 6c 03 c4 be
       -0.5445008 0.484367 -0.03880763 -0.3828386
000070 60 30 15 bd 71 90 84 be 50 5e ba 3e 40 98 0e bf
       -0.036423087 -0.2589145 0.3640008 -0.55701065
000080 b4 5e ca be 86 ab 7b be b4 2a dc bd 80 57 1d bd
       -0.39525378 -0.2457715 -0.107503325 -0.038413525
000090 18 df cd 3e c4 35 21 3e db d9 0e bf 02 b2 d2 3e
       0.4020927 0.15743166 -0.5580117 0.41151434
0000a0 f0 2b f0 3e 54 4c ae bd 5a 61 d2 be 70 5d 69 3d
       0.46908522 -0.08510652 -0.41089898 0.056973875
0000b0 70 a3 b2 be e0 5f 46 3d a0 6e e6 bc 50 42 69 3e
       -0.34890318 0.048431277 -0.028128922 0.22779202
0000c0 5c 74 56 be 88 4b 9d bd 64 e6 dc 3e b8 47 99 bd
       -0.20942825 -0.07680422 0.43144524 -0.074843824
0000d0 4a bb a9 3e 78 1b f9 3d e4 b5 4b 3e 50 30 84 3d
       0.33150703 0.121634424 0.19893605 0.064545274
0000e0 b8 b2 24 be 78 bb 98 3d e0 74 cc bc 50 39 23 bd
       -0.16083801 0.07457632 -0.024958074 -0.03984958
0000f0 d1 05 87 be c6 d5 b9 3e b2 fe 45 be 77 a4 e7 be
       -0.26371625 0.3629591 -0.1933544 -0.45242664

conv2.bias f4 [64]
000000 00 a0 d7 b9 c6 d9 ec bc 28 ed 73 3d 00 8a c0 39
       -0.00041127205 -0.028912436 0.05955234 0.00036723912
000010 6a b6 91 bd 8c fb 0f bd d6 cb a6 bc b8 6f 5a 3c
       -0.07114871 -0.035152003 -0.020360868 0.0133323
000020 e0 c2 27 3c c0 bf 75 3b 60 3c 6d bb 2c 05 05 bd
       0.010239333 0.0037498325 -0.0036199316 -0.032475635
000030 58 27 04 bc 88 e5 18 bc bc 8f 60 3d 18 0d 60 bd
       -0.008066021 -0.009332068 0.054824576 -0.054699987
000040 0c db 9a 3c ce b0 3c 3d 1e a1 33 3d 32 83 8d bc
       0.018903278 0.04606705 0.043854825 -0.017274473
000050 fe ce 1d 3d 60 89 0b bb 56 84 8e 3d 48 18 2d 3c
       0.03852748 -0.0021291599 0.06958835 0.010564871
000060 9a bd 52 3d fa b1 a5 bc c6 99 8d 3d 52 5b 0c 3d
       0.05145035 -0.020226467 0.069140956 0.034266777
000070 60 b3 cd bc 6c 40 54 bc 14 6c 3f bc 52 20 3a bd
       -0.025109947 -0.0129548125 -0.011683483 -0.04544098
000080 74 84 ed bc d8 4f 61 3d e8 d8 07 3c 92 90 51 3d
       -0.028993823 0.055007786 0.008291461 0.051163264
000090 4c bb b0 bc f8 be 55 bd dc 4b 70 bd 15 31 48 bd
       -0.021573685 -0.052184075 -0.058666095 -0.048874933
0000a0 aa 33 4e bd 4c 03 ab 3c 46 49 35 3d d8 ba 5b 3d
       -0.05034224 0.020875596 0.044259332 0.053644985
0000b0 90 19 bb 3b 3a ef 68 bd 80 f2 d3 ba f8 00 39 3d
       0.0057098344 -0.05686877 -0.0016170293 0.04516694
0000c0 0a 4e 92 3d f0 b1 a1 bb 10 b3 6d 3c 56 18 85 3d
       0.07143791 -0.004934542 0.014508024 0.06498782
0000d0 7c d6 c1 3c 80 02 92 3b 26 a5 8f 3d 66 5f 29 3d
       0.023661844 0.0044558644 0.070139214 0.041350745
0000e0 26 0e 91 3d 28 cc 8d 3d 00 2e 8a 3a a6 a0 20 3d
       0.07082777 0.06923705 0.0010542274 0.039215706
0000f0 f8 ff 96 3c f6 91 93 bc cd 8e 81 bd 72 30 25 bd
       0.018432602 -0.018013936 -0.06326065 -0.040329404
